data/MLP_dinov2.pth (torch, 417403 bytes, 4 tensors)

input_layer.weight f4 [256, 384]
000000 96 52 25 bd dc 1a a7 bd 1a 84 06 3d 11 4b 05 3b
       -0.040361963 -0.0815942 0.032840826 0.0020338933
000010 1e 81 39 3c bf 6e 8e bd f3 63 2a bd 13 18 95 3c
       0.011322288 -0.06954717 -0.041599225 0.018199956
000020 fa 9c df bc b5 32 d7 3c b4 8c 8c bc 1a 07 8b bb
       -0.027296532 0.026269296 -0.017156936 -0.00424279
000030 db 36 df 3c f5 a4 d0 b7 6b 84 8a bd cb 04 9c bc
       0.027247837 -2.4872346e-05 -0.06763538 -0.019045254
000040 cb c4 c4 3b 56 6d b2 bd e6 2b 81 3d 95 a4 4b 3c
       0.006004905 -0.087122604 0.06307201 0.012429376
000050 48 9d 9e 3d 9f f9 48 3d b3 c1 e2 3c 91 c0 ac 3c
       0.07744843 0.049066182 0.027680254 0.021087917
000060 18 98 3d 3c df c0 0a 3c bd ef 3c bd 20 79 3a bd
       0.0115719065 0.008468836 -0.04612707 -0.04552567
000070 5c ea 68 bd 52 56 31 bc 94 aa 5e bc b5 cb 8c bc
       -0.056864128 -0.010823803 -0.013590474 -0.017186979
000080 07 cc bd 3d dc b6 93 bc 59 58 5c 3c 40 19 b3 3b
       0.09267431 -0.01803153 0.013448798 0.0054656565
000090 60 aa 51 3c be 62 0a bd 23 ac a7 bd 6b 37 ac 3a
       0.012796968 -0.033785574 -0.08187129 0.0013139074
0000a0 48 8c 93 3c fe 0a 3f 3d 56 6b b5 bd b9 31 c9 3d
       0.018011227 0.046641342 -0.08858363 0.09823937
0000b0 ee 59 ac bd de 2d 94 3d 47 8d ae bd 32 c7 b3 b8
       -0.0841559 0.07235311 -0.0852304 -8.572488e-05
0000c0 f0 4c 2c bc 83 b2 82 3c 62 7f 74 3b 2f 21 27 bd
       -0.01051639 0.015954262 0.0037307371 -0.04080313
0000d0 b7 8d e4 3d 0b d7 63 bd 6a d2 93 bb 80 66 dd 3b
       0.111598425 -0.055625003 -0.0045111673 0.0067566037
0000e0 1f ab 1c bc 97 db 29 3c c1 b5 7c bd f6 05 5c 3d
       -0.009562283 0.010367296 -0.06169677 0.053716622
0000f0 55 5c ef ba 2f 01 4f bd 66 b1 55 3d ec b0 7a bc
       -0.001826177 -0.05053824 0.052171133 -0.0153009705
000100 e0 a4 59 3d c1 89 80 bc 6c ea 52 3d 33 2a d3 3c
       0.053135753 -0.015690686 0.051493093 0.025776958
000110 e3 11 83 bd 30 f7 1b 3c 1e c3 6a 3c 35 a0 16 3d
       -0.06399896 0.009519383 0.014328746 0.03677388
000120 0f e3 81 bd 30 4d b0 bd 4b a5 c2 bc dd be 3c 3d
       -0.06342136 -0.08608472 -0.023760458 0.04608046
000130 f5 e5 1f bd b6 12 87 3c 6c d7 e1 bb 8b 3a 8c bc
       -0.039037663 0.016488414 -0.0068921354 -0.01711776
000140 47 a7 ea 3c 30 e5 d5 3d 16 49 aa 3d 09 05 4b bc
       0.028644217 0.10444105 0.08314721 -0.012391337
000150 75 51 4d bc 5a 04 8e 3d 14 4b 08 bd 8f 84 4f 3d
       -0.012531628 0.06934424 -0.033274725 0.050663527
000160 07 00 a4 3b ea 2e 07 bd a7 a1 2c 3d fd 10 84 3d
       0.005004886 -0.033003725 0.04214635 0.06448553
000170 44 83 14 3c bd 03 4b 3d 70 f4 fa 3c 97 94 61 3c
       0.009064499 0.049564112 0.030634135 0.013768337
000180 ed 9b 89 bb 18 81 85 bc a3 50 c7 3c 1c 8f bf 3d
       -0.004199496 -0.016296908 0.024330443 0.09353468
000190 5c 07 3b 3d a2 2d 4f 3d 18 f0 6b 3c 14 64 85 3c
       0.045661315 0.05058063 0.0144005045 0.016283073
0001a0 96 80 6b bd 93 0f c0 3d 12 7f 52 bd 3e 62 b0 3c
       -0.057495676 0.093779705 -0.051390715 0.02153122
0001b0 e8 56 cb bc 49 c3 a7 3a 5b e0 e7 bc 1c aa 1e 3d
       -0.024821714 0.0012799288 -0.028305223 0.038736448
0001c0 74 d6 ac bd 18 37 40 bd 65 3a ae 3b 07 93 0b 3d
       -0.08439341 -0.04692754 0.0053170198 0.034075763
0001d0 cc c5 ae 3c c3 67 93 bc 26 6f 92 bc 1d f8 dc bc
       0.021334551 -0.017993813 -0.017875265 -0.026973778
0001e0 0e df d0 bb 65 e5 e1 bc ba 3f b0 3b b7 13 1c 3d
       -0.0063742464 -0.027575204 0.0053786905 0.03810474
0001f0 a0 3c 65 bc 81 11 97 ba 71 c1 c7 3c ec 76 94 bd
       -0.013991505 -0.0011525602 0.024384232 -0.07249245
000200 9f d6 0a bd a5 8d f7 bb 64 8c 95 bc c8 10 2a bb
       -0.033896085 -0.007554727 -0.01825542 -0.0025949944
000210 0c 7f 24 bd 84 79 b5 bc cf 11 5b 3d c0 79 76 bc
       -0.040160224 -0.02215267 0.05348378 -0.015043676
000220 ad aa 94 3d 6c 69 04 bc 0d ad 56 bd 91 c4 97 3c
       0.07259116 -0.008081775 -0.052411128 0.018526347
000230 ad bd 48 3b 2c a3 72 3c a8 15 df 3b 77 8f 95 3d
       0.0030630634 0.014809411 0.0068080015 0.07302754
000240 34 7f 1a 3d 1d 4a f0 bc 50 04 9b 3d bc d1 f6 bc
       0.037718967 -0.029332215 0.07569182 -0.030129306
000250 68 e8 9f bc ec c1 e6 bd 87 e3 63 3d 48 c1 d5 3c
       -0.01952 -0.112674564 0.05563691 0.02609314
000260 6b 1c d3 bb c6 9d 45 3d 34 22 08 3d f9 4b a9 3c
       -0.0064425967 0.048246168 0.033235744 0.02066611
000270 9b 9e ba ba a8 e1 23 bc 4f c1 ad 3a db 9b 3d 3b
       -0.0014237942 -0.010002531 0.0013256463 0.0028932008
000280 5b 98 84 3c 8e 38 61 3d f4 0f bb 3c f9 12 b3 bc
       0.01618593 0.054985575 0.022834755 -0.021859633
000290 67 03 a1 3c 08 30 63 bd 2f 91 86 3c ec a1 2e bc
       0.019654943 -0.055465728 0.01642665 -0.010658722
0002a0 ab 7f d0 3c 7f 76 05 b9 b6 ad 15 3d 22 25 ad 3d
       0.025451502 -0.00012728012 0.036542617 0.08454348
0002b0 21 ad 94 3b ca 1b 05 bd 47 49 eb 3c b0 5e bb bc
       0.00453724 -0.032497205 0.028721465 -0.022872299
0002c0 ff 92 ca 3d 97 fb 9b bc b7 7f 26 3d 21 0e 18 3c
       0.098913185 -0.019040866 0.040649142 0.009280712
0002d0 16 13 2c bd fe 9a fe bc 9b 60 62 bb 7f 15 8d 3d
       -0.04201039 -0.031079765 -0.0034542445 0.06888866
0002e0 a1 79 f0 3c 16 fc 54 3d 2c 79 60 bd a8 90 16 bc
       0.029354872 0.05199822 -0.05480306 -0.009189762
0002f0 05 f0 86 bd d2 fb 1e 3d 22 ac a1 bd 2d c7 21 ba
       -0.06588749 0.038814373 -0.0789416 -0.0006171342
000300 9d 22 88 bd a3 aa 12 bd 0e 7a 91 3d 63 a2 91 3c
       -0.06647227 -0.035807263 0.07103358 0.017777627
000310 e9 79 48 3c fd 96 2a bd c4 95 88 bd f5 8b c6 bc
       0.012236097 -0.0416479 -0.066691905 -0.024236659
000320 ac b4 0f 3c dd 2b 6d 3d 93 52 c6 3d 7d 4e 88 3c
       0.008771103 0.05790316 0.096837185 0.016638989
000330 c3 e4 98 bd e0 56 56 3d 05 a4 6f 3d 38 00 5b bd
       -0.07465508 0.052328944 0.05850603 -0.053467005
000340 15 8e 66 3d af 06 7e 3b a4 f6 fe bc 47 e0 b1 bc
       0.056287844 0.0038761308 -0.031123467 -0.02171339
000350 7b ec 17 bd 99 69 0e bd 91 9c 11 bd 71 5b b3 3c
       -0.03709076 -0.034768675 -0.035549704 0.021894189
000360 e6 e1 52 bc 5d ff 63 bd 88 28 79 3d 8d 0c e1 bb
       -0.012871241 -0.055663455 0.06082967 -0.0068679512
000370 79 e4 8f 3d 42 33 19 3d 04 10 39 bb cd a8 7b bc
       0.070259996 0.0374024 -0.0028238306 -0.015360069
000380 37 fb e9 3c 1c 36 93 3d 1d af a3 3d 02 9d ad bb
       0.028562171 0.07188055 0.079923846 -0.005298258
000390 c1 b5 db 3b 77 43 69 3d 29 6a 1d 3d aa b1 0d 3d
       0.0067050164 0.056949105 0.03843132 0.03459326
0003a0 d5 c7 93 bd 47 52 f5 bc e5 de ab bc f1 4d 93 3d
       -0.07215849 -0.02994646 -0.020980308 0.071926005
0003b0 81 77 1d 3d 75 61 e2 3b bc 19 85 bc 91 02 f5 bc
       0.038444046 0.0069085904 -0.016247623 -0.02990845
0003c0 96 74 6d 3d ec 97 46 bc 80 d6 c1 3c a5 c7 86 bc
       0.057972513 -0.012121182 0.023661852 -0.01645262
0003d0 11 39 d4 bc bd fe fb 3b e8 ee c1 3d 2a 46 95 bd
       -0.025906118 0.0076902793 0.09469396 -0.07288773
0003e0 ea d4 02 bc af 22 c1 3c fd 5e 0d bd 65 4c 3c 3d
       -0.007985333 0.023576109 -0.034514416 0.045971293
0003f0 28 a5 c4 3c 51 39 26 3d be fd a0 3b b5 24 8b 3b
       0.024004534 0.040582005 0.004913061 0.004246319

input_layer.bias f4 [256]
000000 34 a7 d7 bb 85 92 b9 3c 6d 9b ef bb 74 ee f0 3c
       -0.0065812115 0.022652874 -0.0073122294 0.029410578
000010 9b 6b 93 3c 1f ea 64 3d ad e5 eb 3b 7e 71 09 3d
       0.017995646 0.055887338 0.0071990103 0.0335555
000020 cb f0 fb 3c 9b 73 aa 3d f1 b7 f1 3c 00 32 16 3d
       0.030754467 0.08322831 0.029506655 0.036668777
000030 33 d1 f2 bc b1 3c 98 3d 46 4c 64 3d 22 98 8e 3d
       -0.02964077 0.07433451 0.055736803 0.06962611
000040 ea bf 43 3c 77 86 66 bc 1a cf 9b bc 43 5e ca bb
       0.011947611 -0.014070145 -0.019019652 -0.0061757877
000050 e9 1f b3 3d 4c 85 8f bc 33 83 0d 3d 5b 22 f8 ba
       0.08746321 -0.017519616 0.03454895 -0.0018931137
000060 ca 13 01 3d 71 4f ea 3b 39 1e bf 3c 0c 96 5e bd
       0.031513013 0.0071505834 0.023329841 -0.054342315
000070 dc 75 f2 3b 60 16 40 3c 61 e0 3a 3d 6e 97 54 3b
       0.007399304 0.011724085 0.04562414 0.0032438892
000080 bf b0 c0 bc a3 7b 0e 3d ca 77 d9 3c 33 e2 25 3c
       -0.02352178 0.034785878 0.026546378 0.010124731
000090 c3 c4 8e 3c 5f fb 1b 3c 32 a4 89 3c c8 6c a5 3d
       0.017427808 0.009520381 0.016801927 0.08077389
0000a0 2f c7 cd bc 59 2d e4 bc 37 0e f9 3c 44 67 83 3b
       -0.025119392 -0.027853655 0.030402286 0.004010113
0000b0 c7 84 fc 3a e2 cc 0f 3c 75 69 db bc ff a2 69 3d
       0.0019265645 0.008776875 -0.026783684 0.05704021
0000c0 e8 05 9d 3c e0 b7 03 ba 1d 17 60 3d f0 29 09 3d
       0.019167855 -0.0005024653 0.054709543 0.03348726
0000d0 46 7c f2 3c fd 70 93 3d 7a 63 4d 3d 30 fe d1 3c
       0.029600274 0.07199285 0.050143696 0.025633901
0000e0 0f e4 84 3d 88 fa d5 3a 69 1b 90 3c e1 43 a3 3d
       0.06488811 0.0016325274 0.017591195 0.07971931
0000f0 ef 51 1a 3d 2b b5 7c 3d 98 e8 3f bb 35 6f ce 3c
       0.037675794 0.061696213 -0.0029282924 0.025199512
000100 0f a9 83 ba 4a 1e 5c 3c 4f 78 54 bb 16 e3 31 3d
       -0.001004489 0.013434956 -0.0032420342 0.043429457
000110 e5 d5 83 3d 0d 94 d8 bc f2 ec d2 3c 2b 86 68 bc
       0.064372815 -0.026437784 0.02574775 -0.014192144
000120 a2 da 9d 3d d7 9b 35 bd 88 82 73 3a 6c 62 38 3d
       0.077077165 -0.044338074 0.0009289165 0.045015737
000130 27 28 69 bc 41 a6 14 3d 5a 57 54 3d e3 02 72 3d
       -0.0142307645 0.036291365 0.051841117 0.059084784
000140 53 db bd bc 66 4f 40 3c 60 44 d8 3c e3 34 8e 3d
       -0.023175871 0.01173768 0.026399791 0.06943681
000150 7f b2 60 3d 0f 82 98 3c 1d 12 32 3d f0 73 8e 3d
       0.054857727 0.018616704 0.043474305 0.06955707
000160 8b e7 a1 3d 90 09 48 3d c1 c9 42 3d 39 a6 22 bb
       0.079054914 0.048837245 0.04755569 -0.0024818315
000170 04 3c 11 3c 17 05 d9 3c 79 75 9d 3d 11 1e af 3c
       0.0088644065 0.026491685 0.07688422 0.021376641
000180 6e 48 5f b6 e5 54 03 3d 86 a7 57 3c 75 43 20 3d
       -3.327175e-06 0.032063384 0.013162499 0.039126832
000190 ad 8e 15 b9 63 5f 81 3d 71 12 ac 3d c0 21 bf bc
       -0.00014262898 0.06317022 0.08401955 -0.023331523
0001a0 df 95 89 3d 82 f7 ac 3c ed be 80 bc 85 e0 22 bd
       0.06718039 0.021114115 -0.01571604 -0.0397649
0001b0 8d 5c 3b 3d 26 e0 9d bb bd 5a 1e 3d 37 41 25 3c
       0.04574256 -0.0048179803 0.038660754 0.010086349
0001c0 24 9b 28 3d 01 7c b5 bc 94 97 b2 3c 9a 61 88 bc
       0.04116358 -0.022153856 0.021800794 -0.016648103
0001d0 cc 25 37 3d eb ba 5d bc 02 b6 51 3d 9d a3 1c 3d
       0.04471378 -0.013533334 0.051198967 0.03824197
0001e0 14 69 35 bc d8 57 aa 3c ef 09 3e bb 10 7b 19 3d
       -0.011072416 0.02079384 -0.002899762 0.037470877
0001f0 53 ab 3a 3d 5e 7e 90 bc 0b 75 3a 3c fa 30 72 3d
       0.045573544 -0.017638382 0.011380444 0.05912874
000200 1a a0 0f 3c fc 53 26 3c fa b6 b5 3c 3b b0 dd 3c
       0.0087661985 0.010151859 0.022181977 0.027061572
000210 ef 80 7b 3d 7d c9 b9 bc 8e 6f 67 ba bf 35 1f 3c
       0.061402258 -0.022679085 -0.00088285736 0.009717404
000220 ae 80 62 3d 7b 98 69 3d f0 fb 82 3a 9b 52 7f bc
       0.0552985 0.057030182 0.0009993296 -0.0155836595
000230 df 29 d1 3d 80 26 c9 bc ff 20 05 3a e9 42 c7 3c
       0.102130644 -0.024554491 0.0005078464 0.024323897
000240 d4 36 63 3d e2 fe 04 3d 65 f5 59 bc 2f bf 3c 3d
       0.05547221 0.032469638 -0.0133031355 0.046080764
000250 08 bd e9 3c 50 8c 1e bc fe 8e 8e 3c 2c b0 90 bc
       0.02853252 -0.009677008 0.017402168 -0.01766213
000260 70 c1 37 3d f3 4a 06 3a 1f 22 df bb a3 a9 7b 3c
       0.04486221 0.00051228626 -0.0068094875 0.015360269
000270 8a 2d db bb bf 1b 58 3d 58 8d 42 3d 19 55 8f 3d
       -0.0066887783 0.052760836 0.047498077 0.06998653
000280 3f af d3 3c a3 a8 e6 3c d0 49 4f 3c 8a ef eb bb
       0.0258404 0.028156584 0.012651876 -0.007200186
000290 8c 99 be 3c 3e ef 19 3d 9a d0 8b 3d e9 7f 85 3c
       0.023266576 0.037581675 0.06826897 0.016296344
0002a0 e6 81 9d 3d b0 df 3e bc 71 9a b3 3d 09 0c 8b 3d
       0.07690792 -0.011650011 0.08769692 0.06789405
0002b0 9e 42 43 3d 3f 22 af 3c 67 50 17 3d ee aa d2 3c
       0.047670953 0.021378634 0.036941912 0.025716271
0002c0 60 0a 52 bd 81 62 3f 3d 17 f0 d8 3c 91 60 6c bd
       -0.051279426 0.0467248 0.026481671 -0.05770928
0002d0 0b ff bf 3c cf eb 8f 3c 31 e6 94 3d dd 67 68 bb
       0.023437044 0.017568497 0.07270468 -0.0035462298
0002e0 97 2c c3 bb e8 fc 80 3d 70 9a c4 3c 36 7a e6 bc
       -0.0059562433 0.06298238 0.023999423 -0.028134447
0002f0 37 90 c8 bc c5 e6 f5 bc 98 6b 28 b9 37 75 75 3a
       -0.02448283 -0.030017266 -0.0001606181 0.00093634747
000300 dd 6c 70 3c 23 79 b7 3c fc 82 19 3d d3 77 01 bd
       0.0146743925 0.02239663 0.037478432 -0.031608414
000310 3a c2 5d 3c 08 7c 89 bc 09 65 ac 3c ec 27 82 3c
       0.013535077 -0.016782776 0.021044271 0.015888177
000320 93 ca bf bc 43 47 b9 3c 51 3f c9 bc fc 43 c2 bc
       -0.023412025 0.022616988 -0.024566324 -0.023714058
000330 da 0a 69 3c 0b a5 77 3c 24 c1 d8 bb fa 0c a9 bc
       0.014223779 0.015115033 -0.006614821 -0.02063607
000340 eb ab 6d 3b 02 fc 43 3d 9c 67 ab 3d c3 f1 89 3d
       0.0036265801 0.047847755 0.08369371 0.067355655
000350 5b 51 4a bd a4 eb 63 3d 35 6f ca bb e9 b5 a9 3b
       -0.049393993 0.055644646 -0.0061778077 0.005179156
000360 3f 70 f0 3b 2e d5 39 3d 47 95 fb 3c de 17 b8 bc
       0.0073375995 0.04536932 0.03071083 -0.022472318
000370 68 2a cf bc 2a 0a 53 3d b3 2a 03 bd 17 77 3f 3d
       -0.025288776 0.051523365 -0.032023143 0.046744432
000380 9c d1 5c 3d 4d 58 eb bc 05 4d 17 3d d2 db 7a 3d
       0.053910837 -0.028728629 0.036938686 0.061244793
000390 83 f7 d5 ba 7c f0 68 bc d0 1d fe 3b ba fc 89 3b
       -0.0016324375 -0.014217492 0.007755019 0.0042110356
0003a0 b1 a1 71 3c 20 cf 4a bc c3 ef ca 3c 99 11 c6 3d
       0.014748023 -0.012378484 0.02477253 0.09671325
0003b0 fd 93 6f 3d c3 46 6b 3d 28 16 5a 3d c8 ee 4c 3c
       0.058490742 0.05744053 0.053243786 0.012508102
0003c0 a7 29 41 bc 9c b2 3d 3c 93 c7 c7 3b 13 fd 85 3d
       -0.011789716 0.011578228 0.006096789 0.06542411
0003d0 ae cb 28 3c 4e 0f 56 3d d0 6f c9 3c 4e 18 41 3d
       0.010302467 0.05226069 0.02458945 0.04714232
0003e0 c6 9f 99 bc 2c 6d 5a 3d 6f 1f cf 3c a4 01 b4 3b
       -0.018752944 0.05332677 0.025283543 0.0054933596
0003f0 20 96 1e 3d a5 16 1d 3d 6f 1b 47 3d e9 32 11 bd
       0.03871739 0.038351674 0.048610147 -0.035448942

output_layer.weight f4 [20, 256]
000000 0f ad c3 bc 48 6f 23 3d 23 d7 bb bd a7 13 37 bd
       -0.023886232 0.039901048 -0.091718934 -0.044696476
000010 4b 7d 72 bd 00 7c ae bd aa 28 41 bd 41 35 93 bd
       -0.05920152 -0.08519745 -0.04715792 -0.07187892
000020 4b 96 ff bc 3d 0e a2 3d b4 71 c7 3d f0 35 b3 3d
       -0.031199595 0.07912872 0.09738484 0.08750522
000030 0e 30 41 bd 0d cd cc bd c2 98 8f 3c 56 7a b6 bd
       -0.04716497 -0.10000048 0.017528895 -0.089100525
000040 9f 01 e2 3d 00 bd 32 3b d0 20 fc bd 6d 52 1e bb
       0.110354654 0.0027273297 -0.12310946 -0.0024158016
000050 97 b2 ef bd 5c 53 58 bd d1 40 ef 3a 48 e8 88 3c
       -0.11703985 -0.052813873 0.001825357 0.016712323
000060 fa 5e b7 bd 53 7b 58 bd 97 33 d4 3c 29 37 a4 3c
       -0.08953662 -0.052851986 0.025903506 0.020045834
000070 e9 fb dd 3c b2 a6 8f bd 58 49 56 3d ea e1 48 3d
       0.02709766 -0.070142165 0.05231604 0.049043573
000080 8c 75 d5 bc f5 ea 44 3d a7 e3 c5 bc a0 98 97 3b
       -0.026057027 0.048075635 -0.024156405 0.0046263486
000090 70 ca 03 3d 27 7c b9 3b 16 81 d7 bc 1e 12 46 bd
       0.03217548 0.005660552 -0.02630667 -0.04835712
0000a0 e0 90 b0 3d 7a cc f8 bc aa 6b 89 3d 4b 12 81 3c
       0.08621383 -0.03037094 0.067099884 0.015755793
0000b0 c0 c3 6e bd c0 53 6b bb 02 92 b9 bd 30 5a 4b 3d
       -0.05829215 -0.0035908073 -0.09061052 0.049646556
0000c0 c7 98 10 bd 74 34 f0 bd bf cc 49 3d c0 96 7d 3c
       -0.03530195 -0.11728755 0.049267527 0.015477836
0000d0 c3 90 fa bd 24 10 77 3d 1b 71 7c 3d cc 1c 44 bc
       -0.12234642 0.060318127 0.061631303 -0.011969756
0000e0 b5 39 8c bb ac 31 76 3c 0e 36 b5 bc e3 40 4a bc
       -0.00427934 0.015026491 -0.022120502 -0.012344572
0000f0 47 4f 81 bd 83 34 41 3d 24 5a 7c 3d 3a 54 91 bc
       -0.06313949 0.04716922 0.061609402 -0.017740358
000100 76 27 d2 bd 0d cc a8 bb 8e 2d 39 3d 9b 0c 21 3d
       -0.10261433 -0.005151278 0.04520946 0.039318662
000110 e9 25 a0 bd e2 9e ba bc 7a 23 a4 bc b2 cb 02 3c
       -0.07819731 -0.02278084 -0.020036448 0.007983135
000120 94 16 dd 3d f9 62 10 bd 4e db 4f bd c1 62 9b bb
       0.10795322 -0.035250638 -0.050746255 -0.004741997
000130 65 36 3c bd fa d6 13 bd be 81 b7 bd 10 af 06 3d
       -0.045950312 -0.03609369 -0.08960293 0.032881796
000140 bf 87 80 3c 45 d4 b1 bd 01 1f b3 bd f7 b9 71 bd
       0.015689729 -0.08683065 -0.08746148 -0.05901524
000150 e0 77 82 3d 74 5f b2 3d 42 72 5c 3d 30 34 fe ba
       0.063705206 0.087096125 0.053819902 -0.0019394215
000160 bc 7a 40 bd 66 7c f6 bd 7e 7e df bc 8e 76 6b 3d
       -0.04699205 -0.12035446 -0.027281996 0.05748611
000170 f1 0e 0d 3c f0 7a 10 bd 21 b8 bc bd 38 2f 38 bd
       0.008609519 -0.035273492 -0.09214807 -0.044966906
000180 52 13 18 bd 3a 41 86 3d bf f7 b9 3d 0b d0 36 3d
       -0.0371278 0.0655541 0.09080457 0.044632
000190 91 53 72 bd 80 e5 39 bc 10 70 71 bd 62 5f 63 3d
       -0.059161726 -0.011346221 -0.05894476 0.055510886
0001a0 a9 02 0a 3d 68 a8 2c 3c d4 d1 a5 bd f5 fc c3 bb
       0.033693943 0.010538198 -0.08096662 -0.0059810826
0001b0 8a 2d 3e bd 91 97 d2 bd 4c c7 21 bc a3 a1 94 3d
       -0.04643015 -0.10282815 -0.009874176 0.07257392
0001c0 98 2c 05 bd 40 36 b8 3d 64 fd 93 3d 33 03 07 3d
       -0.03251323 0.08994722 0.07226065 0.032962035
0001d0 37 c1 4e 3d 64 d0 0a 3d 52 33 0f 3d 1b ec 92 3d
       0.050477233 0.033890143 0.034961052 0.0717394
0001e0 11 85 b6 bd 03 d9 1e bd 41 c4 83 bd bf 49 c0 bd
       -0.08912099 -0.038781177 -0.06433917 -0.09389066
0001f0 ad 95 a7 bc c3 2f 1f 3d fc e5 1c 3c 1a af 50 3d
       -0.020457113 0.03886391 0.009576317 0.05094824
000200 a3 10 c4 3d 54 b3 69 3d a8 9c a2 bd 18 89 c4 3d
       0.09573486 0.057055786 -0.07940036 0.09596461
000210 21 dc 3c bd f1 51 a1 3c d8 ed 80 3d 65 ab 5b bc
       -0.04610837 0.019692393 0.06295365 -0.013407563
000220 79 c5 07 3d 5a 71 34 bd 39 7e be bc 10 4a c1 bd
       0.03314731 -0.044053413 -0.023253547 -0.094379544
000230 32 aa 26 3c f6 42 46 3d 0c bf 25 3d 10 d8 9a 3d
       0.010172414 0.048403703 0.0404654 0.07560742
000240 0a ca a5 bd 1a d3 9e bd 92 f1 92 bd 3b 16 0b bd
       -0.080951765 -0.07755108 -0.07174982 -0.033956748
000250 57 7f 82 bd 4f 2d df bd 9d 3a 5e bc 85 2a 9e bd
       -0.063719444 -0.10897314 -0.013563779 -0.07722954
000260 d4 30 36 bc 1c da 5c bb 79 54 59 bc 3c 4f cc bc
       -0.01112004 -0.003369934 -0.013264769 -0.024940126
000270 0b 55 89 bd 37 8d ed bc d1 70 06 be c0 47 b2 3d
       -0.06705674 -0.028998 -0.13128974 0.087050915
000280 aa 50 9d bb b9 c6 97 bc 80 c8 36 3c 13 87 38 bb
       -0.0048008757 -0.018527376 0.011156201 -0.0028156682
000290 c1 59 cd bd fd 93 77 3d 36 c4 ee 3a 34 fb 4c 3d
       -0.10026885 0.060443867 0.0018216434 0.050044253
0002a0 0e 79 10 3c 7a cf b4 3d ea c1 d7 3c 5d 06 78 bc
       0.008817924 0.088286355 0.026337583 -0.015138236
0002b0 91 81 cf bd be c2 a0 3d f2 45 d8 3c 32 f8 05 3c
       -0.10132135 0.07849644 0.02640054 0.00817685
0002c0 c1 9c a3 bc 3c 60 d4 bd 18 3d cc bd c5 a3 75 bb
       -0.019972207 -0.10369918 -0.0997259 -0.0037481647
0002d0 6f e5 a6 bd b1 be a5 bd e4 1d 98 bb 71 78 9c 3d
       -0.0814923 -0.08093012 -0.004642235 0.0764016
0002e0 ef 31 ce bd 07 67 f4 3b 5f ce 17 3d 10 11 4f bd
       -0.10068118 0.007458571 0.037062045 -0.05055338
0002f0 56 63 b2 3d 12 be 50 3d 81 8f 02 be 33 82 33 bd
       0.08710353 0.050962515 -0.12750055 -0.04382534
000300 2e 51 71 3d 74 da 48 bc 17 5a 90 bd 80 d3 79 bd
       0.05891531 -0.0122591145 -0.07048433 -0.060992718
000310 7f 1d ca bc 32 c2 bb 3b 96 2d 29 bd da af a2 3d
       -0.024672268 0.005729937 -0.04130324 0.07943697
000320 b6 7b 88 bd 60 2f 47 bd 76 a5 83 3a 4d cb a3 bc
       -0.06664221 -0.048629165 0.0010043818 -0.019994402
000330 b9 0f fa bd 81 6a 1e bd 42 5b 3f bc b1 12 3b bd
       -0.1221003 -0.03867579 -0.011679472 -0.045672122
000340 96 45 8d bd 29 a8 74 bd ce 62 c6 bd 6b fd b3 bc
       -0.06898038 -0.059730683 -0.09686814 -0.021971425
000350 8b e8 a8 bd 30 f6 a5 3d 8c 0f 84 3c f2 f8 89 3d
       -0.08247479 0.08103597 0.016120695 0.06736936
000360 e2 59 89 bd 29 10 dc bd c8 7e 58 bd 9a 9d cd bd
       -0.06706597 -0.1074527 -0.052855283 -0.10039826
000370 04 8e fe bb dd f7 11 bd eb 1e c8 bd d2 d4 36 3d
       -0.0077683944 -0.03563677 -0.09771522 0.044636555
000380 22 20 6f bd b6 cc 3f 3b 1d 47 24 3c 1b 68 43 bd
       -0.058380254 0.0029266304 0.01002672 -0.047706705
000390 1f 97 6e bd 6b 01 37 bd e2 aa 31 3d f5 c1 eb 3c
       -0.05824959 -0.044679087 0.043375857 0.02877901
0003a0 81 1d 7f 3d e5 2c 01 bd 14 bd 50 bd b7 4d 84 3d
       0.062283996 -0.031536955 -0.05096157 0.064601354
0003b0 e0 70 01 3d bc 01 2d bd c8 58 fd 3c 4f 09 b3 bd
       0.031601787 -0.042237982 0.030926123 -0.0874201
0003c0 04 15 a8 bd 73 35 83 bd 7b 8b 26 3d 0d 34 ec bc
       -0.082071334 -0.06406679 0.040660363 -0.028833413
0003d0 1b 28 96 3c be d4 d0 3c f4 aa c9 3c 03 5a 53 3d
       0.01832967 0.025492068 0.02461765 0.051599514
0003e0 16 3b ed bd 68 6a a3 bc ed de 3a 3d 89 7d 93 3c
       -0.115835354 -0.0199482 0.045622755 0.018004196
0003f0 57 6b a4 3d f6 77 cb bc e7 0f 34 3d 40 f6 9c 3d
       0.08028286 -0.024837475 0.04396048 0.07664156

output_layer.bias f4 [20]
000000 12 21 47 bd f4 e7 f7 bc 12 67 57 bd 95 a8 73 bd
       -0.048615523 -0.030261971 -0.05258853 -0.059486944
000010 81 5c 78 3c 1a d6 8b 3c c3 d0 c5 bc 9e 28 5d bd
       0.015158773 0.017069865 -0.024147397 -0.053993814
000020 35 36 72 bd 2a 33 7a bd 3a d1 56 bd 1e 22 9e bc
       -0.059133727 -0.06108395 -0.052445628 -0.019303378
000030 9e d4 7c ba 0b 31 2a bc 4b 87 23 bb 46 29 93 3c
       -0.00096447195 -0.010387669 -0.0024952467 0.017964017
000040 78 b8 1a bd a9 06 4d bd 6c 42 67 3c 87 a3 ff bc
       -0.03777358 -0.05005518 0.014114957 -0.031205906
